api/Model/Pytrochfiles/route_gnn_weights.pth (torch, 24300 bytes, 6 tensors)

conv1.bias f4 [64]
00000000: 3a63 403e 6e7a b43d 8334 48bd 2d59 023f
00000010: 0000 0000 fa6f 32bd 9685 893e 87f5 21be
00000020: a37d 013e 52e5 143e 8779 533e f14b 323f
00000030: 99c9 243f e5dd 7bbd 3061 2e3f aa79 923d
00000040: 057e a53c 6f85 55ba 6a04 733f d12d bf3e
00000050: a630 7dbe 3125 ca3e 0ba1 073f 1470 ca3e
00000060: 5301 213c 1ad0 383f 11ea 1b3e b7ef 243e
00000070: 0383 81bd a2f7 14bd f3c0 53bc ada0 31be
00000080: d24c df3e 0000 0000 7ec1 fe3e 0a55 843e
00000090: 60ab 4e3e 2793 98bc 6ccb ef3e 8b30 48be
000000a0: 11e8 923e 3773 59bd ffd0 59be 6082 5abd
000000b0: 45fe 8bbe 5527 f93e a5e3 273f ac0d c43d
000000c0: b0e7 bcbb 7c41 e93e 5e1e 953e 84c4 8e3c
000000d0: ae2c 933e 6880 933e f5a2 5ebe 1d0a 353e
000000e0: 01c8 7abd 1d21 3cbe 0000 0000 5acb 073e
000000f0: d487 c63e 4ebe 013e d780 733e ac80 4ebe
0.18787852 0.08812414 -0.048878204 0.5091732 0.0 -0.04356382 0.2685973 -0.15816317
0.12645583 0.14540604 0.20651828 0.6964713 0.64370114 -0.061490912 0.68117046 0.07152112
0.020201692 -0.00081451883 0.9492861 0.37339643 -0.24725589 0.394815 0.5298011 0.39538634
0.009826976 0.7219254 0.15226008 0.16107069 -0.063238166 -0.036368974 -0.012924421 -0.17346449
0.43613297 0.0 0.49756998 0.2584613 0.20182562 -0.018624855 0.46834886 -0.19549768
0.28692678 -0.053088393 -0.21271132 -0.05334699 -0.2734243 0.4866282 0.65581733 0.0957292
-0.005764924 0.45557773 0.2912473 0.01742769 0.28745025 0.28808904 -0.2174185 0.17679639
-0.061225895 -0.18372007 0.0 0.13261166 0.38775504 0.12670252 0.23779617 -0.20166272

conv1.lin.weight f4 [64, 8]
00000000: 7e89 cfbc 66f3 853f 2c6a eabf 1fc9 fb3e
00000010: 1570 5b3e 29b8 e4bf 1fa8 b7bd 1614 1dbe
00000020: 7e5d 023f 9a2a 993f fefc 61bd bfcf d7be
00000030: 12c9 703e 6201 debe c545 493c 691d 82be
00000040: 64f2 75be 5491 7dbe 28ce f1bd 092a 303d
00000050: 9071 9cbc fa2f 27be 04a2 ad3d 742c 92be
00000060: e6b9 f23d d7cf 33bf 5e70 3240 2622 2c3f
00000070: 5cdf 92bd 67cb fbbf 4acc 543e c07b 493e
00000080: c682 27be 723c e9bd 8d54 b7bd 75c5 50be
00000090: 6cd8 513e d55f 0abe 412f 933e 16ce 79be
000000a0: e474 163f ff3b a73f 7220 56bf f542 93be
000000b0: 3b39 4cbd c63a b33e 52d3 4c3e 9e70 2f3e
000000c0: 4d2c fd3e ac91 3dbf 8f86 df3f c815 733e
000000d0: 4f96 17bc 37ba c03e 3409 4dbe a942 debd
000000e0: a14a 023f 83bb d6bd 11c1 82bf 0351 a53d
000000f0: 45b0 2d3d 58ed e23f 2f5c bbbd cb81 2d3d
00000100: 6253 0c3f 37f7 16bf f656 473f d0e3 883e
00000110: e872 1cbe 3fa9 873f af52 82be 71a3 8e3e
00000120: be8c 5b3d 5e18 3bbe db88 a0bf 293a 2e3f
00000130: d79d 903e 02f8 453f a65f 133e cedb 073e
00000140: 49d3 b53f b719 993e 6c56 413f c320 86bf
00000150: ae61 afbd fb7c 38bf c935 3e3e c2b9 293d
00000160: e18b 693f bc92 42bc d469 1140 8c1d f03e
00000170: c34d 87be 7bc4 c9bf 9f27 7e3e 47ef 9a3d
00000180: 4a32 473f 8b19 13bf 0a76 0540 d8f9 333f
00000190: a36c 1dbe 4710 96bf fa43 93be e599 113e
000001a0: f350 383f 3c7e d4be 5cc5 9abf 8cf0 ab3d
000001b0: 78f8 41be a702 8d3f ea6c 81be e5e1 20be
000001c0: 295e 843f 5bad 99be 7ff0 1640 c7ea 293f
000001d0: a0f6 77be 0f4b c8bf 85c1 4abc 4dbc 113d
000001e0: f86a 9c3e 50c1 b13f 2b06 a8bf d66e 9bbe
000001f0: eb7c c4bc 48b8 dc3c 562f 92be 9558 13be
00000200: dcb8 c13e 4f69 43be 2d1b 68bf f3b7 fa3e
00000210: 3436 023e 0b9b 853f f219 3f3e f60f 8dbc
00000220: 2e0d 27bd 0a01 873f dfb5 04c0 7a79 3a3c
00000230: 9e10 8abe 6d52 353f 997d b7bd b2c8 113e
00000240: 533c 2a3f 6ef1 28bf b615 95be 1116 a7bf
00000250: ce31 3bbc d321 0f3f 1887 7fbe 8be6 303e
00000260: 98a8 243e de03 2a3f 4ce8 c1be 47ed 75be
00000270: 0249 a73d ba5d e8bf 1393 69be 68bc 283d
00000280: 8944 2abf 4e5b 993f e16d a2bf a2a7 6fbd
00000290: f954 01be 2fd1 263f dbe8 85be c431 bbbd
000002a0: bede b03f 7def 033f ecae f33f c7a5 5fc0
000002b0: be5f 3dbe 740f f03e 18cf 863e e8a7 91be
000002c0: 28f4 393c d8fb 9abf 0600 b33e 79d1 1c3f
000002d0: 87da 653c fcd4 db3e aadc 243e 988f c53b
000002e0: fc54 f73e 9433 67bf 56b1 d83f 203c 913e
000002f0: 163d 92be 87cb 0b3e 976e 633e 8c8f 8abe
00000300: 62e6 b23e 11bd aa3f 6ab2 0abe 4c25 e6bc
00000310: 1551 7cbd 7401 26bf a66e adbd d10b e0bd
00000320: 29d3 a13e f295 4cbf a23d c3be 107e 393f
00000330: 28df 583d 8ccd 3cbe f2b7 763e 7371 0b3e
00000340: c717 5bbf 7fa9 55bf 7e2a 5940 4e5f 7b3f
00000350: 1bf6 90be 58b1 21bf f2db a9bd c74f 37be
00000360: 49e0 07bf 84fd b23f 1d6d 1bc0 08bf 453e
00000370: 4e15 aebc 6a23 9abf 3f19 783e 7bc9 51bd
00000380: eb59 103f 4e58 333f dcb3 06c0 d5fa aa3e
00000390: 6773 6b3e 6c91 bc3e 5f21 f5bd c42c b6bd
000003a0: 2f05 4fbe bcd8 753f 35e7 b5bf 5997 143f
000003b0: dd88 6cbe 6360 853d bb94 8bbd ae81 913e
000003c0: b33f 40be 1a56 9f3f ceab 00c0 ad7c 433d
000003d0: 9f33 b2bb abb4 553e 6351 b03c a6a0 273e
000003e0: 1dd9 083f d14e 2dbe f16d e9bf f6ef d83d
000003f0: 87f2 b6bd 35a1 ac3f 1628 5cbe ed44 5fbe
-0.025334116 1.0464904 -1.8313651 0.4917688 0.21429475 -1.7868701 -0.089676134 -0.15339693
0.5092391 1.1966126 -0.055172913 -0.42150685 0.23514202 -0.4336043 0.012284701 -0.25413063
-0.24018246 -0.2476247 -0.11806899 0.043008838 -0.01909712 -0.16326895 0.08478168 -0.2854954
0.118518636 -0.70239013 2.7881083 0.67239606 -0.07171509 -1.9671448 0.20781055 0.19676113
-0.1635848 -0.11388482 -0.08951674 -0.20387824 0.20492715 -0.1351312 0.2874699 -0.24395022
0.5877211 1.3065184 -0.8364326 -0.28762022 -0.049859267 0.35005778 0.20002487 0.17132804
0.4944786 -0.740504 1.7462939 0.23738778 -0.009252145 0.3764207 -0.20023042 -0.10852558
0.50895125 -0.10484984 -1.0215169 0.080720924 0.04240443 1.7728682 -0.09148442 0.04236011
0.5481473 -0.5897097 0.77867067 0.26736307 -0.15278208 1.0598525 -0.25453708 0.2785907
0.05360102 -0.18271014 -1.2541765 0.68057495 0.28245422 0.77331555 0.14391956 0.13267443
1.4205104 0.2990243 0.75522494 -1.0478748 -0.08563553 -0.72065705 0.18575205 0.041436918
0.91229063 -0.0118758045 2.2720842 0.46897542 -0.26426515 -1.5763086 0.24819802 0.0756517
0.7781111 -0.5746085 2.0853295 0.70303106 -0.15373473 -1.1723717 -0.287628 0.14218862
0.7199852 -0.4150256 -1.2091479 0.0839549 -0.1894244 1.1016434 -0.25278407 -0.15711172
1.0341235 -0.30015072 2.3584287 0.66373867 -0.24215174 -1.5647906 -0.01237524 0.03557997
0.3055036 1.3887119 -1.3126882 -0.30358 -0.023985347 0.02694334 -0.2855174 -0.1438926
0.3783635 -0.19083141 -0.90666467 0.48968467 0.1271599 1.043794 0.18662241 -0.017219525
-0.040784054 1.0547192 -2.0736005 0.011381501 -0.26965803 0.70828897 -0.08959503 0.14236715
0.664983 -0.6599339 -0.29118127 -1.3053609 -0.011425449 0.55910987 -0.24953878 0.17275445
0.16079938 0.6641215 -0.3787254 -0.24016295 0.08168222 -1.8153603 -0.2281001 0.041195303
-0.66510826 1.1980989 -1.2689782 -0.058509476 -0.12630071 0.6516294 -0.26154217 -0.091403514
1.3817976 0.51537305 1.9037757 -3.4944932 -0.18493554 0.4688679 0.26329875 -0.28448415
0.011349715 -1.2108107 0.34960955 0.6125713 0.014029152 0.42935932 0.16099802 0.0060290806
0.48307025 -0.90313077 1.6929119 0.28366184 -0.2856223 0.13651858 0.22210155 -0.27062643
0.34941393 1.3338948 -0.13544622 -0.028093956 -0.061600763 -0.6484597 -0.0846837 -0.10939754
0.31606415 -0.799163 -0.3813296 0.7245798 0.052947193 -0.18437785 0.24093607 0.13617496
-0.85583156 -0.83461756 3.3932185 0.981923 -0.28312764 -0.6316123 -0.08293904 -0.17901526
-0.53076607 1.3983617 -2.4285347 0.19311154 -0.021250393 -1.2042058 0.2422838 -0.051217537
0.56387204 0.7005662 -2.1047277 0.33394495 0.22993241 0.36829698 -0.11969256 -0.08895257
-0.20216821 0.96033835 -1.4211184 0.5804344 -0.23099084 0.06512525 -0.068154775 0.2841925
-0.187743 1.2448151 -2.0104861 0.047726322 -0.0054382826 0.208697 0.021523183 0.16369876
0.5345629 -0.16924597 -1.8236676 0.10592644 -0.08932977 1.3486696 -0.21499667 -0.21803637

conv2.bias f4 [64]
00000000: 715c 123e bbd9 a4be e4f3 e53e 8084 973e
00000010: 1afc 75bd f10f 32bd eb01 823e 2f76 8d3e
00000020: ddbc d1bd 30f5 b33e 0000 0000 3b48 a03e
00000030: 0b6b d73e bc25 aabd f991 8cbe 2e2e 7a3d
00000040: 60eb ce3d 00b3 4dbc 8d0b e53e 67af 63bd
00000050: e019 eabc 2eb5 6c3d 2587 b9bc 3b32 b83e
00000060: 1701 203e eefd bfbc b7ce 6c3e 76b0 45bd
00000070: 31f4 4c3e ff1c 993e 3e32 443c 35fc e03d
00000080: e9e0 df3e bfd2 d4bb 3bbc 2d3e a11f ccbd
00000090: 337b 0abe 2950 4cbd 4b8f 8fbe 16d7 c03e
000000a0: ab48 b4bd 6728 a3bd 218e 90bd 4d14 4c3e
000000b0: f4b5 50bd 468a a33e 3454 87bd a03b 68bd
000000c0: fbfb 75bd d037 b9bd 4271 4ebd c819 cf3d
000000d0: f3ab 2f3e da83 eebd 0000 0000 b638 c23c
000000e0: 2f39 793e 135d a0bd 6056 803d 56f3 4e3e
000000f0: 059f 8d3d 2972 ee3d 0000 0000 08bd 0fbe
0.14293076 -0.32197365 0.44912636 0.29593277 -0.060054876 -0.043472234 0.25392088 0.2762923
-0.10241101 0.35148 0.0 0.31305107 0.42073855 -0.083079785 -0.27455118 0.061079197
0.10103488 -0.012554884 0.44735375 -0.0555872 -0.028576791 0.057789974 -0.02264745 0.35975823
0.15625416 -0.023436513 0.2312573 -0.04826399 0.20015027 0.29904935 0.011974869 0.10985605
0.4372628 -0.0064948495 0.16966335 -0.0996697 -0.1352356 -0.049881134 -0.2803901 0.37664098
-0.08802923 -0.079666905 -0.07058359 0.19929619 -0.050954774 0.31941432 -0.06607857 -0.056697488
-0.06005476 -0.090438485 -0.05040098 0.10112339 0.17155437 -0.116462424 0.0 0.023708683
0.2433822 -0.078302525 0.06266475 0.20210013 0.06915096 0.11642868 0.0 -0.14036953

conv2.lin.weight f4 [64, 64]
00000000: 9833 133f b632 623f 1552 a93d b127 bd3e
00000010: 6882 99bd b9d5 663d 27a4 02bf 9512 1fc0
00000020: 6e99 abbf f259 e1be 3fee ed3d 04e0 4e3e
00000030: a447 063e 4e3b b2bf ed1f b33e 66fa c43e
00000040: d869 28bf 679f 023e 5444 08bf e93c 313f
00000050: 5a75 123f 38c7 7a3f 7555 12bf 8ee3 37bf
00000060: 5f4a 243f fdf7 023e 4896 6abf cfdb 7e3f
00000070: 0f6d 643e aa60 053d 3a80 d83e 6829 16c0
00000080: b79e 20bf ba94 383c 518f 4ebe 2f84 853e
00000090: 7fd7 743f 7e27 ecbf 8ea8 bf3c faee 363d
000000a0: f34a ebbf 4775 46be 964c 5a3e f36e 97bd
000000b0: 2361 6d3e e67c 0ebf 2408 003e c6bf 47bd
000000c0: 7bcb 973e 61d4 ddbd c1c2 0b3d aeed febe
000000d0: 38e0 0f3f fd44 0cbf ead2 8dbf 57b4 133f
000000e0: cbe9 73be 2234 743e d170 3e3e 1a45 b83d
000000f0: 6d13 813f 03c4 903e 45e3 0cbf 7cd7 2ec0
00000100: bf9e 61be 9f6a 743f 291f 3fbe 978c 32c0
00000110: c0bc 863d 3c31 593f 4a2c 0cbf 9c52 cd3e
00000120: b72c 393c 5742 f4bd 5302 3d3f 4fd6 b8bf
00000130: e272 2dc0 5aed de3e 3653 06c0 99d4 733f
00000140: 7fc1 873d d68b 0d3f 4af6 6dbe 4bd5 9ebe
00000150: bdd0 a33f 7644 803f daa2 b9bf 8eb1 97bf
00000160: d4a5 aa3e 4cd2 13c0 2a9b 83be 996d 683f
00000170: e4b0 913e d04e 723e 8ed3 6f3f 43a9 ce3e
00000180: 5961 47bc 59b2 2b3e 9407 9cbf 4efd 19c0
00000190: 0276 c63f 64c4 703e 0d49 603e d5aa 6e3f
000001a0: 7b76 853d 5c4c 513f 4044 433e b80a 06be
000001b0: a4a2 5e3f 9ac2 4cbe 1d46 24c0 a136 f43e
000001c0: fd30 053f 1977 d2be f440 233d b89f f33d
000001d0: 32cb 1f3f 1b02 01bf 7e33 823e 0504 7ebe
000001e0: 1a13 66bc 1ed8 653f 5f51 d0bd aa1e 12be
000001f0: a185 a6be 0108 233f ae37 37be 30e1 e03e
00000200: 253e 79bd 2a58 653b a5a9 1f3e 8c0e e53e
00000210: dd66 6b3d 9757 c9bd 0f75 0d3f fbda 433e
00000220: 6053 063f cb53 7e3e 8a48 ea3f 2723 703e
00000230: d0fc 013f e8a5 073f d458 003f b891 3abe
00000240: cffe ba3e c276 86be 9fcf c13f 2cc2 de3d
00000250: 8426 90be fcb3 013f 508c 213f 6dfb 073f
00000260: d54c 683d f62b 0f3f c3b7 8e3f 8bfc e9be
00000270: 9db8 163e 1421 fdbd 49a5 9abe 1433 8c3c
00000280: 3670 2f3f 0024 edbc 36e4 223f 8c68 f63c
00000290: 92c0 a8bd 44c3 833e 97a7 0040 3f2c 94be
000002a0: 1663 223f a848 a43e 378a 3a3e 7e15 22be
000002b0: 7167 80be 5564 863f dc35 833e cb9a cf3f
000002c0: 184e 7a3e d8e8 863e 44fd 0540 8f11 803e
000002d0: b21b 933d 42c3 d43e 7944 363e d62b 033e
000002e0: e8aa c03c 6d62 33be 72ac 2dbc 1de1 b03e
000002f0: f2bd 44be 85d1 813f 68ce 0f3f e9be df3d
00000300: afce 25be 721b 92be a0db 24bd 573a 623e
00000310: 34fa dd3d c3cd 423e 2252 c93e c1c2 543d
00000320: 06d9 8e3e d2da a03e d2a5 593f 7cd7 09bd
00000330: a7be 123e 35d3 3d3c 9aeb 37bd f112 723d
00000340: bd38 403e 0785 1ebd bc64 973f 2227 4cbe
00000350: 9940 bcbe 6716 463f 29da fc3e 1943 ce3e
00000360: df51 73be 89b8 753d 91b8 1440 3c83 a8be
00000370: 6e46 513c 0eea acbd 9ffe 9abe 086a b0bc
00000380: 9261 083e e9ae 7b3d daee d23e 6519 703f
00000390: 462a 14bc a63c a63d a717 953f 44e6 2ebe
000003a0: 0750 003e 8bc2 6d3e 82f6 a33d 5089 f53d
000003b0: e3d0 f33d 4ad3 b23e 4c08 703e 7d3f f23e
000003c0: 7df1 463e a5d2 383c 5a07 873f 83dd 6d3e
000003d0: f18b 8ebd bdd0 d93e c03d 00bb eb1e 88bc
000003e0: 19af a6bd 2dbd 3dbe 9c8b 2d3e c2f1 8c3f
000003f0: 9077 a7be f254 173f 3e0e 0740 5d63 553e
0.575006 0.8835863 0.08267609 0.36944345 -0.07495576 0.056356166 -0.51031727 -2.4855092
-1.3406198 -0.44013935 0.116177075 0.20202643 0.13113266 -1.3924348 0.34985295 0.3847229
-0.65786505 0.1275612 -0.5322926 0.69233567 0.57210314 0.97960234 -0.5716165 -0.71831596
0.6417598 0.12789913 -0.9163556 0.9955415 0.22307228 0.03256289 0.4228533 -2.3462772
-0.6274218 0.011265928 -0.20171858 0.2607741 0.9564132 -1.8449552 0.023395803 0.0446615
-1.8382248 -0.19380675 0.21318278 -0.07394209 0.23181586 -0.5565933 0.12503105 -0.048766874
0.2964743 -0.10831524 0.03412128 -0.4979071 0.56201506 -0.5479277 -1.1079991 0.5769705
-0.23819654 0.23848012 0.18597724 0.08997555 1.0084053 0.28274545 -0.55034286 -2.7319021
-0.22033213 0.9547519 -0.1866423 -2.789831 0.0657897 0.8484075 -0.5475508 0.40102088
0.011302165 -0.11926716 0.7383167 -1.4440402 -2.710137 0.4354046 -2.0988288 0.95246273
0.06628703 0.552915 -0.23238483 -0.31022105 1.2798077 1.0020893 -1.4502823 -1.185106
0.33329642 -2.3097105 -0.25704318 0.9079223 0.2845527 0.23662877 0.9368218 0.4036351
-0.012169206 0.16767253 -1.2189813 -2.4060855 1.5504763 0.23512417 0.21902867 0.9322942
0.06516739 0.8175714 0.19069004 -0.13090026 0.8696692 -0.1999611 -2.5667794 0.4769793
0.52027875 -0.4110649 0.039856866 0.11895698 0.62419426 -0.5039384 0.2542991 -0.24806221
-0.01404264 0.89782894 -0.1017177 -0.1426951 -0.32523826 0.6368409 -0.17892334 0.43921804
-0.06085028 0.0034995177 0.15592058 0.4473766 0.057471145 -0.098311596 0.5525674 0.19126503
0.5247097 0.24836652 1.8303387 0.2345091 0.50776386 0.5298753 0.5013554 -0.1821965
0.3652253 -0.2626248 1.5141486 0.10876879 -0.28154385 0.5066526 0.63104725 0.5311802
0.056713898 0.55926454 1.114983 -0.45700487 0.14718862 -0.12359825 -0.30204228 0.0171142
0.68530595 -0.02894783 0.6362947 0.030079149 -0.08239855 0.25734913 2.0102289 -0.28940007
0.63432443 0.32086682 0.18216787 -0.15828511 -0.2507892 1.0499369 0.2562703 1.6219114
0.24443853 0.2634952 2.093583 0.25013396 0.07183017 0.4155522 0.17799558 0.12809691
0.023518994 -0.17518015 -0.010600196 0.34546748 -0.19213083 1.0142065 0.56174326 0.10925085
-0.16192125 -0.28536564 -0.040248513 0.22092567 0.10838738 0.19023804 0.39320475 0.051943544
0.2789995 0.31416947 0.85018647 -0.033652768 0.1433054 0.011586 -0.04490242 0.059100095
0.18771644 -0.038701084 1.1827617 -0.19936803 -0.36768034 0.77377933 0.49385193 0.40285566
-0.237617 0.05999044 2.323765 -0.32912624 0.012773139 -0.0844308 -0.30272385 -0.021534935
0.1331847 0.061446104 0.41197854 0.9378875 -0.009043282 0.081170365 1.1647843 -0.17080027
0.12530528 0.23218744 0.08006002 0.11989081 0.11905076 0.34926826 0.23440665 0.47314063
0.19428058 0.01128069 1.0549119 0.23229031 -0.069602855 0.42542067 -0.0019568056 -0.016616305
-0.08138866 -0.18529196 0.16947788 1.1011279 -0.32708406 0.5911399 2.1102443 0.20838685

fc.weight f4 [10, 64]
00000000: adad ac3e 9c5d f53d 9528 0abe c055 5ebe
00000010: 5e75 35bd d985 583e ab06 3ebf 0337 473e
00000020: 36ba cabc eb6e aa3d de32 cfbd a74b 91bf
00000030: 1ac9 5c3e 221d aabb 1014 973d 74bb ae3e
00000040: ea67 94be c041 8e3d d9b0 13be 04f8 aa3c
00000050: c00e cc3e bfb6 873e 9f73 91bc 4af6 9b3e
00000060: d483 99be d163 9f3e 7c5b bb3e 6238 093e
00000070: efb0 a23e 71cf f9be bc6c d93e 5eb8 e23d
00000080: 0939 a03d 26bd a13d 11c4 75bd 809f 3cbe
00000090: 99b4 9a3d b8f0 013e 1665 6e3e f5ee e5be
000000a0: d0c9 9cbc 26f8 18bc 08e0 95bc d3a6 cf3e
000000b0: 826e 863c f2e3 81bf 2141 633d 12a2 d0bc
000000c0: 245c 103e 9314 1b3e 10e0 47bd 39e6 353f
000000d0: 2cc4 8ebf 0e91 bc3e b051 6abd e5e6 6dbd
000000e0: a257 893e 685b 32bd 2977 d23e 0abd 093d
000000f0: e74a bfbb 5b97 abbc 9049 f4bd 1665 dbbd
00000100: 6a33 12bf f7a2 2ec0 1879 0f3f 5677 f13e
00000110: 8873 24be 65c7 093e b373 05bf f154 4b3e
00000120: 1070 1cbe 8d1b 443e 28ae 973d 46b4 6ebe
00000130: 0baa de3d 1992 8fbc 7b4c 05bf 1428 8bbf
00000140: 0bbc 973e 9e23 d63e feb4 313f 9c32 ffba
00000150: 7289 823e c22e 1dbe a943 6f3d 1230 d9be
00000160: 4650 f9be 3cea a73e ff7d b5be 7e09 25bf
00000170: c861 61bf 52d3 e3be db5e 28c0 b0c2 34bf
00000180: 17db 8239 fa5a c23e 0a8d dabc 03ce e7bd
00000190: aad8 4fbf 0247 023e d8fc edbf 6e76 213f
000001a0: a96f 05bd d38d 0cbe 976f ddbd e00f a4be
000001b0: 0af6 ebb9 d813 ea3b 6f14 b1bd 2439 5abd
000001c0: 7fed 063e 52a8 f33b e440 5e3d cde4 993e
000001d0: db26 923e dc08 58bf 08d4 ccbd a99b 063e
000001e0: 2186 ffbd a228 f53a e1cb e73e cd77 433e
000001f0: 3f2e 9d3d dc44 073e a0e3 03bc 58d7 b1bf
00000200: 76e1 96be ca22 803f b775 41bb 976d a53e
00000210: 6898 b43d 447d 4e3e 4bbb 5e3e 6aa9 b83e
00000220: 0470 7abd fe3d 9b3e 983f cd3d d5c4 dcbf
00000230: 9dcb c83e f05f c6bd 25ac 813f b266 2f3f
00000240: 8397 58bf 7c89 42be ff51 a03d 6921 74bb
00000250: 36cf 6bbe ad5a 38bf a09c 10be c03a 23c0
00000260: 226a c1bf f669 053e d286 82bf 0c46 1bbf
00000270: 5ed3 523f 9351 ad3c 8caf 133f 8fcf a1be
00000280: ff82 75bf f295 88be 6a3a 61bf d547 253b
00000290: c9c5 193f b068 87bc b7fa 4c3f 98e7 1ec0
000002a0: e38c f3bd a805 46bd 9c00 9c3d aa69 243f
000002b0: c2a5 cbbc 1453 14be 43ae e7bc f993 bd3c
000002c0: 9948 71bc ca16 cf3d 7cbc cd3c f683 3d3d
000002d0: b3bc 4ebf eb82 0a3f 3440 e03d f775 80be
000002e0: ea77 8ebf da71 a43d 4d1b 15bf 6ff4 053f
000002f0: d9e0 74bf 5df5 e4be 027d dd3d a9d0 983d
00000300: 19c5 8a3f d959 38bf 75b7 79be fff2 49bf
00000310: 76df ef3d c25b 23be 1b56 1d3f 5288 0e3d
00000320: 1ffe 853c a598 c13d bcbf 15bd f428 173f
00000330: b303 13bf 7811 e03d d04a 29be a7dd ebbf
00000340: e66d 683d 48ae b03d 8443 91be 2c6a 393c
00000350: 66a0 ea3d d84a cdbe b347 363e 295b 923f
00000360: 59a0 e2be 87cb 64bf 3ff8 7d3f 6831 0dbf
00000370: e23e 03c0 f7bd 613f fb5b 36c0 36b4 e63e
00000380: 2984 6c3f 3852 d83d 2d53 36be 540d 013e
00000390: 6e1a d8be 2e53 ed3d 449d 91be 6d79 573f
000003a0: 43af 06bd 2bd1 ed3d fac1 0b3e a741 56bf
000003b0: e522 26be 690a 063f 47f6 8b3d b52f d93d
000003c0: 5d5e a6bc 7504 b53e 5729 123e bf48 3e3f
000003d0: 5782 253f 7dc2 aebf 8c66 293d c507 eebe
000003e0: 943e 823f 2fa0 613c 1b6f cc3e 466c 16bf
000003f0: b689 05bd c611 053c 8056 b53c c801 00bf
0.33726254 0.11980745 -0.13492043 -0.21712399 -0.044301383 0.21144809 -0.74228925 0.19454579
-0.024746995 0.08321937 -0.10117124 -1.1351212 0.21561089 -0.005191461 0.073768735 0.3412739
-0.2898553 0.069461346 -0.14422931 0.020870216 0.39855003 0.26506612 -0.017755328 0.3046134
-0.2998339 0.3113084 0.36593235 0.13400415 0.31775615 -0.48791078 0.4246577 0.110703215
0.078233786 0.07897405 -0.060001437 -0.1842022 0.075539775 0.12689483 0.23280749 -0.44908872
-0.0191392 -0.009336507 -0.018295303 0.40556964 0.016410116 -1.0147688 0.055482034 -0.025467906
0.14097649 0.15144567 -0.048797667 0.71054417 -1.1153617 0.36829418 -0.05720681 -0.058081526
0.2682467 -0.043544203 0.41106537 0.033627547 -0.0058377865 -0.020946195 -0.119280934 -0.1071264
-0.571097 -2.7286966 0.5604415 0.4716136 -0.16059697 0.13454969 -0.5212967 0.19856621
-0.15277123 0.19151135 0.074062645 -0.23310956 0.10872277 -0.01752572 -0.52069825 -1.0871606
0.29635653 0.4182405 0.694168 -0.0019470039 0.25495487 -0.15349868 0.058414135 -0.42419487
-0.48694056 0.32795894 -0.3544769 -0.6446761 -0.8803983 -0.44497162 -2.6307895 -0.7060957
0.00024958767 0.37960035 -0.02667858 -0.113185905 -0.8118998 0.127224 -1.8592787 0.63071334
-0.03257719 -0.13725977 -0.108123 -0.32043362 -0.00045006006 0.007143479 -0.086464755 -0.05327715
0.13176535 0.007435837 0.054261103 0.30057374 0.2854527 -0.8438852 -0.10001379 0.13145317
-0.12476755 0.0018704126 0.45272735 0.19088669 0.07674836 0.13209862 -0.0080498755 -1.3893843
-0.29468888 1.0010617 -0.0029519626 0.32310173 0.08818132 0.20164973 0.21751134 0.36066753
-0.061141983 0.30320734 0.10021895 -1.7247568 0.39217845 -0.096862674 1.0130659 0.68516076
-0.8460619 -0.18997759 0.078281395 -0.003725136 -0.23028263 -0.7201336 -0.14122248 -2.5504608
-1.5110514 0.13028702 -1.0197394 -0.6065376 0.8235377 0.021157062 0.5768974 -0.31603667
-0.9590301 -0.266769 -0.8797976 0.0025219817 0.6006742 -0.016529411 0.8007006 -2.4828854
-0.118921064 -0.048345238 0.07617304 0.6422373 -0.024859313 -0.14484817 -0.028281337 0.023141848
-0.014726781 0.101117685 0.02511429 0.046268426 -0.8075668 0.54106015 0.10949746 -0.2509
-1.1130345 0.08029528 -0.5824478 0.523261 -0.9565559 -0.44718447 0.10814859 0.07461674
1.08414 -0.72012097 -0.2438639 -0.7888641 0.11712544 -0.15952972 0.6145951 0.034797974
0.016356526 0.09452943 -0.036559805 0.59046865 -0.5742752 0.10940832 -0.16532445 -1.8427018
0.056745432 0.086269915 -0.28371823 0.011316817 0.11456375 -0.40096164 0.17800789 1.143407
-0.4426296 -0.8937306 0.9920692 -0.5515351 -2.050713 0.8818049 -2.849364 0.45059365
0.9238916 0.10562557 -0.17805167 0.1260274 -0.42207664 0.11588131 -0.28440297 0.84169656
-0.032881986 0.11612161 0.13648215 -0.8369393 -0.16224249 0.52359635 0.06834083 0.106048025
-0.020308668 0.35354963 0.14273582 0.7432975 0.6465201 -1.3653103 0.041357562 -0.46490303
1.0175347 0.013771101 0.39928517 -0.5875896 -0.032602035 0.008121913 0.022135973 -0.5000272

fc.bias f4 [10]
00000000: 1430 babd 4084 ad3e a003 debd 9870 febd
00000010: 49aa cb3d f16c e4bd bec7 5a3e 5a86 40bd
00000020: b680 543c c870 7abc
-0.090912014 0.3388996 -0.10840535 -0.12423819 0.09944589 -0.111535914 0.21365258 -0.047003128
0.01297014 -0.015285678
